Model: "functional_1"
__________________________________________________________________________________________________
Layer (type)                    Output Shape         Param #     Connected to
==================================================================================================
input_1 (InputLayer)            [(None, 512, 512, 3) 0
__________________________________________________________________________________________________
conv2d (Conv2D)                 (None, 512, 512, 64) 1792        input_1[0][0]
__________________________________________________________________________________________________
batch_normalization (BatchNorma (None, 512, 512, 64) 256         conv2d[0][0]
__________________________________________________________________________________________________
conv2d_1 (Conv2D)               (None, 512, 512, 64) 36928       batch_normalization[0][0]
__________________________________________________________________________________________________
batch_normalization_1 (BatchNor (None, 512, 512, 64) 256         conv2d_1[0][0]
__________________________________________________________________________________________________
max_pooling2d (MaxPooling2D)    (None, 256, 256, 64) 0           batch_normalization_1[0][0]
__________________________________________________________________________________________________
conv2d_2 (Conv2D)               (None, 256, 256, 128 73856       max_pooling2d[0][0]
__________________________________________________________________________________________________
batch_normalization_2 (BatchNor (None, 256, 256, 128 512         conv2d_2[0][0]
…
__________________________________________________________________________________________________
batch_normalization_4 (BatchNor (None, 128, 128, 256 1024        conv2d_4[0][0]
__________________________________________________________________________________________________
conv2d_5 (Conv2D)               (None, 128, 128, 256 590080      batch_normalization_4[0][0]
__________________________________________________________________________________________________
batch_normalization_5 (BatchNor (None, 128, 128, 256 1024        conv2d_5[0][0]
__________________________________________________________________________________________________
max_pooling2d_2 (MaxPooling2D)  (None, 64, 64, 256)  0           batch_normalization_5[0][0]
__________________________________________________________________________________________________
conv2d_6 (Conv2D)               (None, 64, 64, 512)  1180160     max_pooling2d_2[0][0]
__________________________________________________________________________________________________
batch_normalization_6 (BatchNor (None, 64, 64, 512)  2048        conv2d_6[0][0]
__________________________________________________________________________________________________
conv2d_7 (Conv2D)               (None, 64, 64, 512)  2359808     batch_normalization_6[0][0]
__________________________________________________________________________________________________
batch_normalization_7 (BatchNor (None, 64, 64, 512)  2048        conv2d_7[0][0]
__________________________________________________________________________________________________
dropout (Dropout)               (None, 64, 64, 512)  0           batch_normalization_7[0][0]
__________________________________________________________________________________________________
max_pooling2d_3 (MaxPooling2D)  (None, 32, 32, 512)  0           dropout[0][0]
__________________________________________________________________________________________________
conv2d_8 (Conv2D)               (None, 32, 32, 1024) 4719616     max_pooling2d_3[0][0]
__________________________________________________________________________________________________
batch_normalization_8 (BatchNor (None, 32, 32, 1024) 4096        conv2d_8[0][0]
__________________________________________________________________________________________________
conv2d_9 (Conv2D)               (None, 32, 32, 1024) 9438208     batch_normalization_8[0][0]
__________________________________________________________________________________________________
batch_normalization_9 (BatchNor (None, 32, 32, 1024) 4096        conv2d_9[0][0]
__________________________________________________________________________________________________
dropout_1 (Dropout)             (None, 32, 32, 1024) 0           batch_normalization_9[0][0]
__________________________________________________________________________________________________
up_sampling2d (UpSampling2D)    (None, 64, 64, 1024) 0           dropout_1[0][0]
__________________________________________________________________________________________________
conv2d_10 (Conv2D)              (None, 64, 64, 512)  2097664     up_sampling2d[0][0]
__________________________________________________________________________________________________
concatenate (Concatenate)       (None, 64, 64, 1024) 0           dropout[0][0]
                                                                 conv2d_10[0][0]
__________________________________________________________________________________________________
conv2d_11 (Conv2D)              (None, 64, 64, 512)  4719104     concatenate[0][0]
__________________________________________________________________________________________________
batch_normalization_10 (BatchNo (None, 64, 64, 512)  2048        conv2d_11[0][0]
__________________________________________________________________________________________________
conv2d_12 (Conv2D)              (None, 64, 64, 512)  2359808     batch_normalization_10[0][0]
__________________________________________________________________________________________________
batch_normalization_11 (BatchNo (None, 64, 64, 512)  2048        conv2d_12[0][0]
__________________________________________________________________________________________________
up_sampling2d_1 (UpSampling2D)  (None, 128, 128, 512 0           batch_normalization_11[0][0]
__________________________________________________________________________________________________
conv2d_13 (Conv2D)              (None, 128, 128, 256 524544      up_sampling2d_1[0][0]
…
__________________________________________________________________________________________________
conv2d_18 (Conv2D)              (None, 256, 256, 128 147584      batch_normalization_14[0][0]
__________________________________________________________________________________________________
batch_normalization_15 (BatchNo (None, 256, 256, 128 512         conv2d_18[0][0]
__________________________________________________________________________________________________
up_sampling2d_3 (UpSampling2D)  (None, 512, 512, 128 0           batch_normalization_15[0][0]
__________________________________________________________________________________________________
conv2d_19 (Conv2D)              (None, 512, 512, 64) 32832       up_sampling2d_3[0][0]
__________________________________________________________________________________________________
concatenate_3 (Concatenate)     (None, 512, 512, 128 0           batch_normalization_1[0][0]
                                                                 conv2d_19[0][0]
__________________________________________________________________________________________________
conv2d_20 (Conv2D)              (None, 512, 512, 64) 73792       concatenate_3[0][0]
__________________________________________________________________________________________________
batch_normalization_16 (BatchNo (None, 512, 512, 64) 256         conv2d_20[0][0]
__________________________________________________________________________________________________
conv2d_21 (Conv2D)              (None, 512, 512, 64) 36928       batch_normalization_16[0][0]
__________________________________________________________________________________________________
batch_normalization_17 (BatchNo (None, 512, 512, 64) 256         conv2d_21[0][0]
__________________________________________________________________________________________________
conv2d_22 (Conv2D)              (None, 512, 512, 2)  1154        batch_normalization_17[0][0]
__________________________________________________________________________________________________
conv2d_23 (Conv2D)              (None, 512, 512, 4)  12          conv2d_22[0][0]
==================================================================================================
Total params: 31,056,398
Trainable params: 31,044,622
Non-trainable params: 11,776